nc: 3 # number of classes
scales: # model compound scaling constants, i.e. 'model=yolov12n.yaml' will call yolov12.yaml with scale 'n'
  # [depth, width, max_channels]
  s: [0.50, 0.50, 1024]

backbone:
  # [from, repeats, module, args]
  - [-1, 1, Conv,  [64, 3, 2]]
  - [-1, 1, Conv,  [128, 3, 2]]
  - [-1, 2, C3k2,  [256, False, 0.25]]
  - [-1, 1, Conv,  [256, 3, 2]]
  - [-1, 2, C3k2,  [512, False, 0.25]]
  - [-1, 1, Conv,  [512, 3, 2]]
  - [-1, 4, A2C2f, [512, True, 4]]
  - [-1, 1, Conv,  [1024, 3, 2]]
  - [-1, 4, A2C2f, [1024, True, 1]]

head:
  - [-1, 1, nn.Upsample, [None, 2, "nearest"]]
  - [[-1, 6], 1, Concat, [1]]
  - [-1, 2, A2C2f, [512, False, -1]]

  - [-1, 1, nn.Upsample, [None, 2, "nearest"]]
  - [[-1, 4], 1, Concat, [1]]
  - [-1, 2, A2C2f, [256, False, -1]]

  - [-1, 1, Conv, [256, 3, 2]]
  - [[-1, 11], 1, Concat, [1]]
  - [-1, 2, A2C2f, [512, False, -1]]

  - [-1, 1, Conv, [512, 3, 2]]
  - [[-1, 8], 1, Concat, [1]]
  - [-1, 2, C3k2, [1024, True]]

  - [[14, 17, 20], 1, Detect, [nc]]